…
el = models.Sequential()model.add(layers.Dense(64, activation='relu', input_shape=(10000, )))model.add(layers.Dense(64, activation='relu'))model.add(layers.Dense(32, activation='relu'))model.add(layers.Dense(32, activation='relu'))model.add(layers.Dense(1, activation='sigmoid'))model.summary()model.compile( optimizer=optimizers.RMSprop(lr=0.001), loss=losses.binary_crossentropy, metrics=[metrics.binary_accuracy]) _________________________________________________________________ Layer (type) Output Shape Param # ================================================================= dense_13 (Dense) (None, 64) 640064 _________________________________________________________________ dense_14 (Dense) (None, 64) 4160 _________________________________________________________________ dense_15 (Dense) (None, 32) 2080 _________________________________________________________________ dense_16 (Dense) (None, 32) 1056 _________________________________________________________________ dense_17 (Dense) (None, 1) 33 ================================================================= Total params: 647,393 Trainable params: 647,393 Non-trainable params: 0 _________________________________________________________________ 1234567history = model.fit( partial_x_train, partial_y_train, epochs=8, batch_size=512, validation_data=(x_val, y_val),) Train on 15000 samples, validate on 10000 samples Epoch 1/8 15000/15000 [=
…
