…
nV3(include_top=False, weights='imagenet', input_shape=IMG_SIZE)gap = layers.GlobalAveragePooling2D()(inception.output)# 마지막 31번째 뒤 레이어들을 제외한 모든 레이어를 가중치 동결합니다.for l in inception.layers[:-31]: l.trainable = False# 위의 Transfer Learning에서 훈련시킨 분류기를 이용합니다.classifier = modelmodel = Model(inception.input, classifier(gap))model.summary() __________________________________________________________________________________________________ Layer (type) Output Shape Param # Connected to ================================================================================================== input_3 (InputLayer) (None, 150, 150, 3) 0 __________________________________________________________________________________________________ conv2d_94 (Conv2D) (None, 74, 74, 32) 864 input_3[0][0] __________________________________________________________________________________________________ batch_normalization_94 (BatchNo (None, 74, 74, 32) 96 conv2d_94[0][0] __________________________________________________________________________________________________ activation_94 (Activation) (None, 74, 74, 32) 0 batch_normalization_94[0][0] __________________________________________________________________________________________________ conv2d_95 (Conv2D) (None, 72, 72, 32) 9216 activation_94[0][0] 중간 생략 ... __________________________________________________________________________________________________ concatenate_3 (Concatenate) (None, 3, 3, 768) 0 activation_185[0][0] activation_186[0][0] __________________________________________________________________________________________________ activation_187 (Activation) (None, 3, 3, 192) 0 batch_normalization_187[0][0] __________________________________________________________________________________________________ mixed10 (Concatenate) (None, 3, 3, 2048) 0 activation_179[0][0] mixed9_1[0][0] concatenate_3[0][0] activation_187[0][0] __________________________________________________________________________________________________ global_average_pooling2d_1 (Glo (None, 2048) 0 mixed10[0][0] __________________________________________________________________________________________________ sequential_1 (Sequential) (None, 2) 4098 global_average_pooling2d_1[0][0] ================================================================================================== Total params: 21,806,882 Trainable params: 6,077,634 Non-trainable params: 15,729,248 __________________________________________________________________________________________________ 모델의 구성을 잘 보시면 총 파라메터의 개수는 약 2,200만개의 파라메터를 가지고 있지만,훈련이 가능한 파라메터의 수는 약 600만개 입니다.나머
…
ation='relu'))model.add(layers.MaxPooling2D((2, 2)))model.add(layers.Dropout(rate=0.3))model.add(layers.Conv2D(64, (3, 3), (1, 1), 'same', activation='relu'))model.add(layers.MaxPooling2D((2, 2)))model.add(layers.Dropout(rate=0.3))model.add(layers.Flatten())model.add(layers.Dense(512, activation='relu'))model.add(layers.Dense(256, activation='relu'))model.add(layers.Dense(2, activation='sigmoid'))model.summary() _________________________________________________________________ Layer (type) Output Shape Param # ================================================================= conv2d_3 (Conv2D) (None, 64, 64, 16) 448 _________________________________________________________________ max_pooling2d_3 (MaxPooling2 (None, 32, 32, 16) 0 _________________________________________________________________ dropout_3 (Dropout) (None, 32, 32, 16) 0 _________________________________________________________________ conv2d_4 (Conv2D) (None, 32, 32, 32) 4640 _________________________________________________________________ max_pooling2d_4 (MaxPooling2 (None, 16, 16, 32) 0 _________________________________________________________________ dropout_4 (Dropout) (None, 16, 16, 32) 0 _________________________________________________________________ conv2d_5 (Conv2D) (None, 16, 16, 64) 18496 _________________________________________________________________ max_pooling2d_5 (MaxPooling2 (None, 8, 8, 64) 0 _________________________________________________________________ dropout_5 (Dropout) (None, 8, 8, 64) 0 _________________________________________________________________ flatten_1 (Flatten) (None, 4096) 0 _________________________________________________________________ dense_3 (Dense) (None, 512) 2097664 _________________________________________________________________ dense_4 (Dense) (None, 256) 131328 _________________________________________________________________ dense_5 (Dense) (None, 2) 514 ================================================================= Total params: 2,253,090 Trainable params: 2,253,090 Non-trainable params: 0 _________________________________________________________________ 1trainGen.samples 7205 12345model.compile( optimizer='adam', loss='binary_crossentropy', metrics=['acc'],) 12345678epochs = 32history = model.fit_generator( trainGen, epochs=epochs, steps_per
…
), filters=64, kernel_size=(2, 2), strides=(1, 1), padding='same', activation='relu', kernel_initializer='glorot_normal',))model.add(layers.MaxPool2D())model.add(layers.Conv2D( filters=128, kernel_size=(2, 2), strides=(1, 1), padding='same', activation='relu', kernel_initializer='glorot_normal'))model.add(layers.MaxPool2D())model.add(layers.Flatten())model.add(layers.Dense(10, activation='softmax'))model.summary() _________________________________________________________________ Layer (type) Output Shape Param # ================================================================= conv2d (Conv2D) (None, 28, 28, 64) 320 _________________________________________________________________ max_pooling2d (MaxPooling2D) (None, 14, 14, 64) 0 _________________________________________________________________ conv2d_1 (Conv2D) (None, 14, 14, 128) 32896 _________________________________________________________________ max_pooling2d_1 (MaxPooling2 (None, 7, 7, 128) 0 _________________________________________________________________ flatten_1 (Flatten) (None, 6272) 0 _________________________________________________________________ dense_3 (Dense) (None, 10) 62730 ================================================================= Total params: 95,946 Trainable params: 95,946 Non-trainable params: 0 _________________________________________________________________ 모델 컴파일저희는 레이블 데이터를 원-핫 인코딩을 진행하지 않았기 때문에 Loss 펑션에 sparse_categorical_crossentropy를 지정합니다. 12345model.compile( optimizer='adam', loss='sparse_categorical_crossentropy', metrics=['acc']) 모델 학습CPU로 돌리
…
l2D())model.add(layers.Dropout(.5))model.add(layers.Conv2D( filters=256, kernel_size=(2, 2), strides=(1, 1), padding='same', activation='relu', kernel_initializer='glorot_normal', kernel_regularizer=regularizers.l2(0.01),))model.add(layers.MaxPool2D())model.add(layers.Dropout(.5))model.add(layers.Flatten())model.add(layers.Dense(10, activation='softmax', kernel_regularizer=regularizers.l2(0.01),))model.summary() _________________________________________________________________ Layer (type) Output Shape Param # ================================================================= conv2d_2 (Conv2D) (None, 28, 28, 32) 160 _________________________________________________________________ max_pooling2d_2 (MaxPooling2 (None, 14, 14, 32) 0 _________________________________________________________________ dropout (Dropout) (None, 14, 14, 32) 0 _________________________________________________________________ conv2d_3 (Conv2D) (None, 14, 14, 64) 8256 _________________________________________________________________ max_pooling2d_3 (MaxPooling2 (None, 7, 7, 64) 0 _________________________________________________________________ dropout_1 (Dropout) (None, 7, 7, 64) 0 _________________________________________________________________ conv2d_4 (Conv2D) (None, 7, 7, 128) 32896 _________________________________________________________________ max_pooling2d_4 (MaxPooling2 (None, 3, 3, 128) 0 _________________________________________________________________ dropout_2 (Dropout) (None, 3, 3, 128) 0 _________________________________________________________________ conv2d_5 (Conv2D) (None, 3, 3, 256) 131328 _________________________________________________________________ max_pooling2d_5 (MaxPooling2 (None, 1, 1, 256) 0 _________________________________________________________________ dropout_3 (Dropout) (None, 1, 1, 256) 0 _________________________________________________________________ flatten_2 (Flatten) (None, 256) 0 _________________________________________________________________ dense_4 (Dense) (None, 10) 2570 ================================================================= Total params: 175,210 Trainable params: 175,210 Non-trainable params: 0 _________________________________________________________________ 아까보다 두개의 레이어를 더 추가했고, 파라메터 수가 2배 가까이 늘어난게 보입니다.중간중간 드랍아웃이 적용되었고, 레이어별로 L2 정규화를 추가했습니다.이러한 정규화 기법을 추가하지 않고 학습을 했다면 이전보다 더 빠르게 과대적합이 일어나겠죠?그럼 드랍아웃과 L2규제를 추가한 이후로 모델이 과대적합을 어떻게 견뎌내는지 확인해봅시다. 모델 컴파일1
…
el = models.Sequential()model.add(layers.Dense(64, activation='relu', input_shape=(10000, )))model.add(layers.Dense(64, activation='relu'))model.add(layers.Dense(32, activation='relu'))model.add(layers.Dense(32, activation='relu'))model.add(layers.Dense(1, activation='sigmoid'))model.summary()model.compile( optimizer=optimizers.RMSprop(lr=0.001), loss=losses.binary_crossentropy, metrics=[metrics.binary_accuracy]) _________________________________________________________________ Layer (type) Output Shape Param # ================================================================= dense_13 (Dense) (None, 64) 640064 _________________________________________________________________ dense_14 (Dense) (None, 64) 4160 _________________________________________________________________ dense_15 (Dense) (None, 32) 2080 _________________________________________________________________ dense_16 (Dense) (None, 32) 1056 _________________________________________________________________ dense_17 (Dense) (None, 1) 33 ================================================================= Total params: 647,393 Trainable params: 647,393 Non-trainable params: 0 _________________________________________________________________ 1234567history = model.fit( partial_x_train, partial_y_train, epochs=8, batch_size=512, validation_data=(x_val, y_val),) Train on 15000 samples, validate on 10000 samples Epoch 1/8 15000/15000 [=
…
