…
<span class="line">classifier = model</span><br><span class="line"></span><br><span class="line">model = Model(inception.input, classifier(gap))</span><br><span class="line"></span><br><span class="line">model.summary()</span><br></pre></td></tr></table></figure><pre><code>__________________________________________________________________________________________________Layer (type)                    Output Shape         Param #     Connected to                     ==================================================================================================input_3 (InputLayer)            (None, 150, 150, 3)  0                                            __________________________________________________________________________________________________conv2d_94 (Conv2D)              (None, 74, 74, 32)   864         input_3[0][0]                    __________________________________________________________________________________________________batch_normalization_94 (BatchNo (None, 74, 74, 32)   96          conv2d_94[0][0]                  __________________________________________________________________________________________________activation_94 (Activation)      (None, 74, 74, 32)   0           batch_normalization_94[0][0]     __________________________________________________________________________________________________conv2d_95 (Conv2D)              (None, 72, 72, 32)   9216        activation_94[0][0]                                                    중간 생략 ...__________________________________________________________________________________________________concatenate_3 (Concatenate)     (None, 3, 3, 768)    0           activation_185[0][0]                                                                              activation_186[0][0]             __________________________________________________________________________________________________activation_187 (Activation)     (None, 3, 3, 192)    0           batch_normalization_187[0][0]    __________________________________________________________________________________________________mixed10 (Concatenate)           (None, 3, 3, 2048)   0           activation_179[0][0]                                                                              mixed9_1[0][0]                                                                                    concatenate_3[0][0]                                                                               activation_187[0][0]             __________________________________________________________________________________________________global_average_pooling2d_1 (Glo (None, 2048)         0           mixed10[0][0]                    __________________________________________________________________________________________________sequential_1 (Sequential)       (None, 2)            4098        global_average_pooling2d_1[0][0] ==================================================================================================Total params: 21,806,882Trainable params: 6,077,634Non-trainable params: 15,729,248__________________________________________________________________________________________________</code></pre><p>모델의 구성을 잘 보시면 총 파라메터의 개수는 약 2,200만개의 파라메터를 가지고 있지만,<br>훈련이 가능한 파
…
s="line">model.add(layers.Dense(<span class="number">256</span>, activation=<span class="string">'relu'</span>))</span><br><span class="line">model.add(layers.Dense(<span class="number">2</span>, activation=<span class="string">'sigmoid'</span>))</span><br><span class="line"></span><br><span class="line">model.summary()</span><br></pre></td></tr></table></figure><pre><code>_________________________________________________________________Layer (type)                 Output Shape              Param #   =================================================================conv2d_3 (Conv2D)            (None, 64, 64, 16)        448       _________________________________________________________________max_pooling2d_3 (MaxPooling2 (None, 32, 32, 16)        0         _________________________________________________________________dropout_3 (Dropout)          (None, 32, 32, 16)        0         _________________________________________________________________conv2d_4 (Conv2D)            (None, 32, 32, 32)        4640      _________________________________________________________________max_pooling2d_4 (MaxPooling2 (None, 16, 16, 32)        0         _________________________________________________________________dropout_4 (Dropout)          (None, 16, 16, 32)        0         _________________________________________________________________conv2d_5 (Conv2D)            (None, 16, 16, 64)        18496     _________________________________________________________________max_pooling2d_5 (MaxPooling2 (None, 8, 8, 64)          0         _________________________________________________________________dropout_5 (Dropout)          (None, 8, 8, 64)          0         _________________________________________________________________flatten_1 (Flatten)          (None, 4096)              0         _________________________________________________________________dense_3 (Dense)              (None, 512)               2097664   _________________________________________________________________dense_4 (Dense)              (None, 256)               131328    _________________________________________________________________dense_5 (Dense)              (None, 2)                 514       =================================================================Total params: 2,253,090Trainable params: 2,253,090Non-trainable params: 0_________________________________________________________________</code></pre><figure class="highlight python"><table><tr><td class="gutter"><pre><span class="line">1</span><br></pre></td><td class="code"><pre><span class="line">trainGen.samples</span><br
…
n><br><span class="line">model.add(layers.MaxPool2D())</span><br><span class="line">model.add(layers.Flatten())</span><br><span class="line">model.add(layers.Dense(<span class="number">10</span>, activation=<span class="string">'softmax'</span>))</span><br><span class="line"></span><br><span class="line">model.summary()</span><br></pre></td></tr></table></figure><pre><code>_________________________________________________________________Layer (type)                 Output Shape              Param #   =================================================================conv2d (Conv2D)              (None, 28, 28, 64)        320       _________________________________________________________________max_pooling2d (MaxPooling2D) (None, 14, 14, 64)        0         _________________________________________________________________conv2d_1 (Conv2D)            (None, 14, 14, 128)       32896     _________________________________________________________________max_pooling2d_1 (MaxPooling2 (None, 7, 7, 128)         0         _________________________________________________________________flatten_1 (Flatten)          (None, 6272)              0         _________________________________________________________________dense_3 (Dense)              (None, 10)                62730     =================================================================Total params: 95,946Trainable params: 95,946Non-trainable params: 0_________________________________________________________________</code></pre><h2 id="모델-컴파일-1"><a href="#모델-컴파일-1" class="headerlink" title="모델 컴파일"></a>모델 컴파일</h2><p>저희는 레이블 데이터를 원-핫 인코딩을 진행하지 않았기 때문에 Loss 펑션에 sparse_categorical_crossentropy를 지정합니다.</p><figure 
…
class="line">model.add(layers.Flatten())</span><br><span class="line">model.add(layers.Dense(<span class="number">10</span>, activation=<span class="string">'softmax'</span>, kernel_regularizer=regularizers.l2(<span class="number">0.01</span>),))</span><br><span class="line"></span><br><span class="line">model.summary()</span><br></pre></td></tr></table></figure><pre><code>_________________________________________________________________Layer (type)                 Output Shape              Param #   =================================================================conv2d_2 (Conv2D)            (None, 28, 28, 32)        160       _________________________________________________________________max_pooling2d_2 (MaxPooling2 (None, 14, 14, 32)        0         _________________________________________________________________dropout (Dropout)            (None, 14, 14, 32)        0         _________________________________________________________________conv2d_3 (Conv2D)            (None, 14, 14, 64)        8256      _________________________________________________________________max_pooling2d_3 (MaxPooling2 (None, 7, 7, 64)          0         _________________________________________________________________dropout_1 (Dropout)          (None, 7, 7, 64)          0         _________________________________________________________________conv2d_4 (Conv2D)            (None, 7, 7, 128)         32896     _________________________________________________________________max_pooling2d_4 (MaxPooling2 (None, 3, 3, 128)         0         _________________________________________________________________dropout_2 (Dropout)          (None, 3, 3, 128)         0         _________________________________________________________________conv2d_5 (Conv2D)            (None, 3, 3, 256)         131328    _________________________________________________________________max_pooling2d_5 (MaxPooling2 (None, 1, 1, 256)         0         _________________________________________________________________dropout_3 (Dropout)          (None, 1, 1, 256)         0         _________________________________________________________________flatten_2 (Flatten)          (None, 256)               0         _________________________________________________________________dense_4 (Dense)              (None, 10)                2570      =================================================================Total params: 175,210Trainable params: 175,210Non-trainable params: 0_________________________________________________________________</code></pre><p>아까보다 두개의 레이어를 더 추가했고, 파라메터 수가 2배 가까이 늘어난게 보입니다.<br>중간중간 드랍아웃이 적용되었고, 레이어별로 L2 정규화를 추가했습니다.<br>이러한 정규화 기법을 추가하지 않고 학습을 했다면 이전보다 더 빠르게 과대적합이 일어나겠죠?<br>그럼 드랍아웃과 L2규제를 추가한 이후로 모델이 과대적
…
lass="line"></span><br><span class="line">model.compile(</span><br><span class="line">    optimizer=optimizers.RMSprop(lr=<span class="number">0.001</span>),</span><br><span class="line">    loss=losses.binary_crossentropy,</span><br><span class="line">    metrics=[metrics.binary_accuracy]</span><br><span class="line">)</span><br></pre></td></tr></table></figure><pre><code>_________________________________________________________________Layer (type)                 Output Shape              Param #   =================================================================dense_13 (Dense)             (None, 64)                640064    _________________________________________________________________dense_14 (Dense)             (None, 64)                4160      _________________________________________________________________dense_15 (Dense)             (None, 32)                2080      _________________________________________________________________dense_16 (Dense)             (None, 32)                1056      _________________________________________________________________dense_17 (Dense)             (None, 1)                 33        =================================================================Total params: 647,393Trainable params: 647,393Non-trainable params: 0_________________________________________________________________</code></pre><figure class="highlight python"><table><tr><td class="gutter"><pre><span class="line">1</span><br><span class="line">2</span><br><span class="line">3</span><br><span class="line">
…
